…
Using PhysicalDevice(name='/physical_device:GPU:0', device_type='GPU')
df_bg shape (1999760, 28)
df_sig shape (199930, 28)
df_bg_SB shape (1279456, 28)
df_bg_SR shape (242678, 28)
df_sig_SB shape (47496, 28)
df_sig_SR shape (150596, 28)

Dataset consists of 14991 batches of 64 samples each, total 959424 samples
Testset consists of 4997 batches of 64 samples each, total 319808 samples
Model: "sequential"
_________________________________________________________________
Layer (type)                 Output Shape              Param #   
=================================================================
dense (Dense)                (None, 128)               16640     
_________________________________________________________________
leaky_re_lu (LeakyReLU)      (None, 128)               0         
_________________________________________________________________
batch_normalization (BatchNo (None, 128)               512       
_________________________________________________________________
reshape (Reshape)            (None, 8, 8, 2)           0         
_________________________________________________________________
conv2d_transpose (Conv2DTran (None, 8, 8, 32)          288       
_________________________________________________________________
leaky_re_lu_1 (LeakyReLU)    (None, 8, 8, 32)          0         
_________________________________________________________________
batch_normalization_1 (Batch (None, 8, 8, 32)          128       
_________________________________________________________________
conv2d_transpose_1 (Conv2DTr (None, 8, 8, 16)          4624      
_________________________________________________________________
leaky_re_lu_2 (LeakyReLU)    (None, 8, 8, 16)          0         
_________________________________________________________________
batch_normalization_2 (Batch (None, 8, 8, 16)          64        
_________________________________________________________________
flatten (Flatten)            (None, 1024)              0         
_________________________________________________________________
dense_1 (Dense)              (None, 9)                 9225      
=================================================================
Total params: 31,481
Trainable params: 31,129
Non-trainable params: 352
_________________________________________________________________

Model: "sequential_1"
_________________________________________________________________
Layer (type)                 Output Shape              Param #   
=================================================================
dense_2 (Dense)              (None, 128)               1408      
_________________________________________________________________
reshape_1 (Reshape)          (None, 8, 8, 2)           0         
_________________________________________________________________
conv2d (Conv2D)              (None, 8, 8, 64)          1216      
_________________________________________________________________
leaky_re_lu_3 (LeakyReLU)    (None, 8, 8, 64)          0         
_________________________________________________________________
conv2d_1 (Conv2D)            (None, 8, 8, 32)          18464     
_________________________________________________________________
leaky_re_lu_4 (LeakyReLU)    (None, 8, 8, 32)          0         
_________________________________________________________________
conv2d_2 (Conv2D)            (None, 8, 8, 16)          4624      
_________________________________________________________________
leaky_re_lu_5 (LeakyReLU)    (None, 8, 8, 16)          0         
_________________________________________________________________
flatten_1 (Flatten)          (None, 1024)              0         
_________________________________________________________________
leaky_re_lu_6 (LeakyReLU)    (None, 1024)              0         
_________________________________________________________________
dropout (Dropout)            (None, 1024)              0         
_________________________________________________________________
dense_3 (Dense)              (None, 1)                 1025      
=================================================================
Total params: 26,737
Trainable params: 26,737
Non-trainable params: 0
_________________________________________________________________

Now pre-training discriminator for 30 epochs
Now training model for 300 epochs

Epoch 10:

Epoch 20:

Epoch 30:

Epoch 40:

Epoch 50:

Epoch 60:

Epoch 70:

Epoch 80:

Epoch 90:

Epoch 100:

…
