…
##########| 500/500 [2:22:15<00:00, 21.85s/it]100%|##########| 500/500 [2:22:15<00:00, 17.07s/it]
Using Tensorflow 2.1.0
1 GPUs found
Using PhysicalDevice(name='/physical_device:GPU:0', device_type='GPU')
Dataset consists of 3048 batches of 64 samples each, total 195072 samples
Testset consists of 1016 batches of 64 samples each, total 65024 samples
Model: "sequential"
_________________________________________________________________
Layer (type)                 Output Shape              Param #   
=================================================================
dense (Dense)                (None, 128)               8448      
_________________________________________________________________
leaky_re_lu (LeakyReLU)      (None, 128)               0         
_________________________________________________________________
batch_normalization (BatchNo (None, 128)               512       
_________________________________________________________________
reshape (Reshape)            (None, 8, 8, 2)           0         
_________________________________________________________________
conv2d_transpose (Conv2DTran (None, 8, 8, 32)          288       
_________________________________________________________________
leaky_re_lu_1 (LeakyReLU)    (None, 8, 8, 32)          0         
_________________________________________________________________
batch_normalization_1 (Batch (None, 8, 8, 32)          128       
_________________________________________________________________
conv2d_transpose_1 (Conv2DTr (None, 8, 8, 16)          4624      
_________________________________________________________________
leaky_re_lu_2 (LeakyReLU)    (None, 8, 8, 16)          0         
_________________________________________________________________
batch_normalization_2 (Batch (None, 8, 8, 16)          64        
_________________________________________________________________
flatten (Flatten)            (None, 1024)              0         
_________________________________________________________________
dense_1 (Dense)              (None, 9)                 9225      
=================================================================
Total params: 23,289
Trainable params: 22,937
Non-trainable params: 352
_________________________________________________________________

Model: "sequential_1"
_________________________________________________________________
Layer (type)                 Output Shape              Param #   
=================================================================
dense_2 (Dense)              (None, 128)               1408      
_________________________________________________________________
reshape_1 (Reshape)          (None, 8, 8, 2)           0         
_________________________________________________________________
conv2d (Conv2D)              (None, 8, 8, 64)          1216      
_________________________________________________________________
leaky_re_lu_3 (LeakyReLU)    (None, 8, 8, 64)          0         
_________________________________________________________________
conv2d_1 (Conv2D)            (None, 8, 8, 32)          18464     
_________________________________________________________________
leaky_re_lu_4 (LeakyReLU)    (None, 8, 8, 32)          0         
_________________________________________________________________
conv2d_2 (Conv2D)            (None, 8, 8, 16)          4624      
_________________________________________________________________
leaky_re_lu_5 (LeakyReLU)    (None, 8, 8, 16)          0         
_________________________________________________________________
flatten_1 (Flatten)          (None, 1024)              0         
_________________________________________________________________
leaky_re_lu_6 (LeakyReLU)    (None, 1024)              0         
_________________________________________________________________
dropout (Dropout)            (None, 1024)              0         
_________________________________________________________________
dense_3 (Dense)              (None, 1)                 1025      
=================================================================
Total params: 26,737
Trainable params: 26,737
Non-trainable params: 0
_________________________________________________________________

Now pre-training discriminator for 50 epochs
Now training model for 500 epochs

Epoch 50:

Epoch 100:

Epoch 150:

Epoch 200:

Epoch 250:

Epoch 300:

Epoch 350:

Epoch 400:

Epoch 450:

Epoch 500:
